Models/model.pt (torch, 696812 bytes, 19 tensors)

embedding.weight f4 [1132, 100]
00000000: b57f 90bd ec34 0b3d ecf8 513d 7391 163c
00000010: 58f4 123c 82bb 283d 4400 253d 1d97 e03c
00000020: 7781 c53c ec25 853d 6906 3c3d fb45 6abd
00000030: 854c a73c abf4 de3c c9a5 4d3d 90b9 7bbd
00000040: c54f e23b e661 db3c b134 8cbd 02fb 4bbd
00000050: 5a8c 4b3d 23f7 3cbd a77f 8bbd 149c 183d
00000060: 1e51 42bd 7e00 3c3d 34a9 a43c e148 4dbd
00000070: 9584 833d bf1d 16bd 7b79 e5bc a44d 503d
00000080: 088f d6bc 997e b6bc 95eb bb3c 66ce 673d
00000090: d5e3 b73c 1934 3e3d c7b3 93bd 6786 35bd
000000a0: b0ac cc3b a53c 9ebd 5b32 47bd 62c5 22bd
000000b0: 7ad7 23bd e9f7 46bd ce40 c7bc 9bee 44bd
000000c0: 9c74 24bd 066d 58bd 965b b4bc 846f a03c
000000d0: 8710 1dbd f306 063d e07d 31bd 3251 c0bc
000000e0: aefd 1b3c 0c68 c5bc 5df5 413d 668e d9b9
000000f0: 385b 63bd a797 3f3c d37e 53bd 2eea aebc
00000100: 995b 883d fde7 0c3d 96fd 913d 8102 d8bc
00000110: fd04 6bbc 82c9 9b3c d7de ca3c 43ee 2d3c
00000120: 7b65 783c 1a0d 5fbd a5d5 b93d 7ce4 893c
00000130: f388 8c3c 6c52 1bbc 3a44 0fbd 032a 8fbd
00000140: c9aa d03c 37d7 81bd 0a82 dfbc 2cbd 3d3d
00000150: bc64 07bd 241c 813d 3971 debc 745f e6bc
00000160: db4e e1bc 5977 71bd 7691 953c 48be 6abd
00000170: fdfc 523d 32ea 0d3d 6eca 07ba 90e0 d93c
00000180: 8963 15bd c46c 2bbd 6886 7f3d 270e 283d
00000190: 0000 0000 0000 0000 0000 0000 0000 0000
000001a0: 0000 0000 0000 0000 0000 0000 0000 0000
000001b0: 0000 0000 0000 0000 0000 0000 0000 0000
000001c0: 0000 0000 0000 0000 0000 0000 0000 0000
000001d0: 0000 0000 0000 0000 0000 0000 0000 0000
000001e0: 0000 0000 0000 0000 0000 0000 0000 0000
000001f0: 0000 0000 0000 0000 0000 0000 0000 0000
00000200: 0000 0000 0000 0000 0000 0000 0000 0000
00000210: 0000 0000 0000 0000 0000 0000 0000 0000
00000220: 0000 0000 0000 0000 0000 0000 0000 0000
00000230: 0000 0000 0000 0000 0000 0000 0000 0000
00000240: 0000 0000 0000 0000 0000 0000 0000 0000
00000250: 0000 0000 0000 0000 0000 0000 0000 0000
00000260: 0000 0000 0000 0000 0000 0000 0000 0000
00000270: 0000 0000 0000 0000 0000 0000 0000 0000
00000280: 0000 0000 0000 0000 0000 0000 0000 0000
00000290: 0000 0000 0000 0000 0000 0000 0000 0000
000002a0: 0000 0000 0000 0000 0000 0000 0000 0000
000002b0: 0000 0000 0000 0000 0000 0000 0000 0000
000002c0: 0000 0000 0000 0000 0000 0000 0000 0000
000002d0: 0000 0000 0000 0000 0000 0000 0000 0000
000002e0: 0000 0000 0000 0000 0000 0000 0000 0000
000002f0: 0000 0000 0000 0000 0000 0000 0000 0000
00000300: 0000 0000 0000 0000 0000 0000 0000 0000
00000310: 0000 0000 0000 0000 0000 0000 0000 0000
00000320: f403 b6be 1a21 823e 96a9 f83e 929a 27bf
00000330: 3b33 c6be adf8 883d cd2a 253e c618 0a3e
00000340: 7aaf eb3e b796 2a3c 1945 e23e 3455 abbe
00000350: 2518 973e 1430 af3d e375 ea3e 88f4 dbbe
00000360: ca19 183e a95a 01bc 0dc0 26bf 702e 903e
00000370: 4c35 e83c 26f5 42be aea5 ea3e 2e1d 003f
00000380: 95d0 373f e2d6 f03d 4f51 4d3e 1256 3cbf
00000390: 55a5 3e3e 1ef8 babe 2a32 1abe 4b2c 313f
000003a0: ffd1 96be e5b9 843d 6626 fabd 17ae dc3e
000003b0: 4339 293e 9608 cd3e fb51 0cbe 10a6 ffbe
000003c0: 79d6 6ebe 1b9e 82be 1945 b1bd 2554 89be
000003d0: 6433 6ebe 384d f3be 6d33 943e 57b0 59bf
000003e0: d884 30be 8d30 f1be 8b94 b8bc f681 1cbe
000003f0: d927 973e b4be bd3f a0b0 78be 17eb 37c0
-0.07055608 0.033986017 0.05126278 0.009189951 0.008969389 0.041194446 0.040283456 0.027415806
0.024109585 0.06501374 0.04590455 -0.057195645 0.02042223 0.027216276 0.050206933 -0.061456263
0.006906482 0.02678008 -0.068459876 -0.049799927 0.049694397 -0.046134125 -0.06811457 0.037258223
-0.04744064 0.045898907 0.020100214 -0.05011833 0.064217724 -0.03664946 -0.028012028 0.050855294
-0.02619125 -0.022277163 0.022939483 0.05659332 0.022447506 0.046436403 -0.07212024 -0.04431763
0.006246172 -0.07726411 -0.048632007 -0.03973902 -0.040000416 -0.04857627 -0.024322893 -0.048079114
-0.04015027 -0.052838348 -0.022016328 0.019584425 -0.03834584 0.03272147 -0.043332934 -0.023476217
0.009520931 -0.024097465 0.047353137 -0.0004149556 -0.055506915 0.011693872 -0.05163462 -0.0213519
0.06658096 0.03440093 0.07128446 -0.026368381 -0.014344451 0.019016985 0.024764461 0.010615888
0.015160914 -0.054455854 0.090739526 0.016832583 0.017155146 -0.0094801 -0.034977175 -0.06990435
0.025472062 -0.06339877 -0.027283687 0.046322986 -0.033055052 0.063041955 -0.027153598 -0.028121687
-0.027503422 -0.05895171 0.018257838 -0.057310373 0.0515108 0.034647174 -0.00051800057 0.026596338
-0.036471877 -0.041851774 0.06238404 0.04102912 0.0 0.0 0.0 0.0
0.0 0.0 0.0 0.0 0.0 0.0 0.0 0.0
0.0 0.0 0.0 0.0 0.0 0.0 0.0 0.0
0.0 0.0 0.0 0.0 0.0 0.0 0.0 0.0
0.0 0.0 0.0 0.0 0.0 0.0 0.0 0.0
0.0 0.0 0.0 0.0 0.0 0.0 0.0 0.0
0.0 0.0 0.0 0.0 0.0 0.0 0.0 0.0
0.0 0.0 0.0 0.0 0.0 0.0 0.0 0.0
0.0 0.0 0.0 0.0 0.0 0.0 0.0 0.0
0.0 0.0 0.0 0.0 0.0 0.0 0.0 0.0
0.0 0.0 0.0 0.0 0.0 0.0 0.0 0.0
0.0 0.0 0.0 0.0 0.0 0.0 0.0 0.0
0.0 0.0 0.0 0.0 0.0 0.0 0.0 0.0
-0.3554989 0.2541588 0.48566884 -0.6547023 -0.3871096 0.06688056 0.16129608 0.13486013
0.46032315 0.01041191 0.44193342 -0.33463442 0.29510608 0.08554092 0.45793065 -0.4296
0.14853588 -0.00789515 -0.65136796 0.2816043 0.028345726 -0.19038829 0.4582953 0.50044525
0.71802646 0.11759736 0.20050548 -0.7356883 0.18617757 -0.36517423 -0.15058199 0.6920821
-0.2945709 0.06480769 -0.12214355 0.4310157 0.1652575 0.40045613 -0.13703148 -0.49931383
-0.23324002 -0.2551125 -0.086557575 -0.2682201 -0.23261791 -0.4751985 0.28945485 -0.850347
-0.17238176 -0.47107354 -0.022531768 -0.15283951 0.2952259 1.4823823 -0.24286127 -2.8737237

lstm.weight_ih_l0 f4 [128, 100]
00000000: 4e29 0cbe cbff ff3d c029 b53c e250 323e
00000010: 9277 72be 84f0 2fbc 9f8a 833d 5f82 a9ba
00000020: cba1 c73c 3b86 9fbd 7151 7f3e 7a5c 08be
00000030: 22dd 973c b655 223e 8755 9fbd 279c 03be
00000040: f717 163e c55b 5e3e 78ef bebd d384 543e
00000050: ed05 2d3e 8602 41bd ed9a 9d3c fa07 8dbd
00000060: 7907 05be b3f4 843d d4d9 ecbd e1ab a8bd
00000070: 13fe 533c 673f 26be e3cf a33c 7c63 cf3d
00000080: 1265 633d 68d2 8ebd 2699 ca3d 83a6 103e
00000090: bd5a 1f3e 2190 fc3d 7ba0 dd3d efc4 17be
000000a0: 6584 bc3d 3802 22be a8c4 fabd c316 13bd
000000b0: b911 0dbe d7b3 32be 4ac3 b0bd 7e99 f03c
000000c0: 4264 d13d 3fd4 cd3d cd95 1dbe 8e7b 4c3e
000000d0: 8d92 24bd 8da3 323e a09d 8f3d 8c16 773d
000000e0: feb5 debd 3f69 463e 3e88 343e 3cef 473e
000000f0: 4617 dfbc 3381 8b3d 4d20 24be 51bf 2abd
00000100: 901b 4ebb 716d 0dbe 6aac f7bc 782d 193d
00000110: e8f5 8fbd b278 353d 8121 363e a778 313e
00000120: 8935 be3d 234a 813d 25b0 f13b 798d 323e
00000130: a808 ce3d d07f debd 6496 77bd 0042 803d
00000140: d837 c1bd 4001 42bc 2806 06be 0861 893d
00000150: 30ac e53d d4d3 1dbe 9ba4 f7bd fc45 263d
00000160: b68d 933d e4cd 3b3d b109 30bd 73a0 89bd
00000170: 49b6 783b ab64 3d3e d4de 7abd 017f 2bbd
00000180: 35cf fdbd 2944 e7bd d730 70bd 73b8 70bc
00000190: ea8d aab9 a66b f53d b20a d6bd 7ccc 0abd
000001a0: 9cfa 1b3d 1851 173e d013 113d 11fa 04bc
000001b0: dbe2 27be 23f8 eebd 9b66 523e c433 3b3e
000001c0: b70c cebc dbdf 213e 0a70 31bc 39c1 3ebc
000001d0: 736a 2abe f98b 1b3e 2b19 91bd 0e69 cf3d
000001e0: c62f 5c3c ece8 153d 997c 173d c728 153e
000001f0: 20c2 f0bd 0c43 d9bc fcd7 883d 0507 24bd
00000200: dd5d 0e3d f1b7 0bbe 4af5 e53b c702 1b3e
00000210: 4659 243e dab7 a23c 6241 aebd ed8a 9cbd
00000220: f8a8 20bc cf8d a63d fe4f efbd 3a36 c2bd
00000230: f446 09be 02bc 9c3d e52f e7bd 3565 c83d
00000240: d64c a0bc fe51 c83d b418 d2bb 4649 313c
00000250: f329 3d3e d409 983d 4b30 e7bd fe11 cfbd
00000260: 1aa9 d53d 89f5 d3bc 1fd5 19be f691 b83c
00000270: 2a9f e5bd b7d7 473e af73 183e 2f8d a13d
00000280: c99e aabd 5865 2c3e 6205 8f3d a7c2 94bd
00000290: b7e3 acbd a266 193e b941 0abd 4cda 57bd
000002a0: bb5b 37bd 0982 2ebc 93f9 163d 42af bb3d
000002b0: 86d1 283d 3463 91bd f4f9 183e a36a 263e
000002c0: 90d7 cc3d 1bae 2e3e 7e1a 4abd 3f69 34be
000002d0: 9eee ae3d 6c6b 183e 8c2e 3cbc c655 a33d
000002e0: a010 5dbb cb1b 433e 1b43 0fbb f13b d3bd
000002f0: 8ca4 18bd 25e5 cfbd 5a95 6e3c fab5 783c
00000300: 4b95 e93d fe70 dbbc 05ed e43d 748d 24be
00000310: 82ec 9cbd 430f f8bd ddc0 99bc bf33 213e
00000320: 9431 96bc baf9 ed3d a82b 4f3e 35e8 b83d
00000330: 1e9e cbbd 7787 e8bd 523d d53d 9be5 793d
00000340: ebb9 92bc 150a 183e 0075 1c3e 3f6f 03be
00000350: 7449 cb3d 6160 563e 2bc4 e5bb 3bad 80bd
00000360: 13bc ffbd 7b8a 043e 480a d0bc e0c6 b13d
00000370: 698c 0ebe 2598 73bc 532d 7fbc 0b4b 563e
00000380: df4b 243e 4c4c 46bd e5f8 1a3d a00c 8ebc
00000390: a745 b53d 4621 e03d ef1c 063e ebe3 783d
000003a0: 4f84 823d 271d 103e b3ed 193e 87cc e8bd
000003b0: dcf9 2c3e 6d1c 13be c596 a43c 5509 a6bd
000003c0: 4f36 fbbd 4c6f 06bd 348e 8fbd 69f7 8a3d
000003d0: a5d2 93bd c526 e5bd 14e5 3dbe 08d7 c33c
000003e0: 3717 7fbd 0e30 73bb df56 633c fd2c 08bc
000003f0: 54c9 443a a664 85bc 7cbf 0dbe 0dd1 093d
-0.13687631 0.124999605 0.022114635 0.17413667 -0.23678425 -0.010738496 0.06422924 -0.001293253
0.024369141 -0.07789274 0.24933411 -0.13316527 0.018538062 0.15853009 -0.07779985 -0.12852536
0.1465758 0.21714695 -0.09323019 0.20753793 0.16896792 -0.047121547 0.019238913 -0.06886287
-0.12991132 0.06491985 -0.11564985 -0.08235908 0.012938994 -0.16235124 0.019996589 0.10126397
0.05551631 -0.069737256 0.09892492 0.14126019 0.15561958 0.12332178 0.10821625 -0.14821218
0.0920494 -0.15821159 -0.122445405 -0.03591038 -0.13776292 -0.17451416 -0.086309984 0.029370066
0.10224201 0.10050248 -0.15389176 0.19969007 -0.040178824 0.17445202 0.070124865 0.060324237
-0.10874556 0.19376086 0.17630097 0.19524854 -0.027232777 0.06811752 -0.16027947 -0.04168636
-0.0031449534 -0.1381128 -0.03023358 0.037396878 -0.07029325 0.044304557 0.17786218 0.17331181
0.09287555 0.063129686 0.0073757344 0.1743678 0.10060245 -0.10864222 -0.060446158 0.062625885
-0.094344795 -0.011841118 -0.13088286 0.0670796 0.11214483 -0.15412837 -0.12091943 0.040594086
0.072047636 0.04585065 -0.042977992 -0.067200564 0.0037950447 0.18495433 -0.06124766 -0.041869167
-0.12393037 -0.112922974 -0.058640327 -0.014692414 -0.0003253066 0.11983423 -0.10451259 -0.033886418
0.038080797 0.14777029 0.035419285 -0.008116261 -0.16395132 -0.11668422 0.20546953 0.18281466
-0.025152547 0.1580805 -0.010829935 -0.011642748 -0.1664217 0.15190114 -0.070848785 0.101274595
0.013439124 0.036599085 0.03698406 0.14566337 -0.117557764 -0.026521228 0.06681821 -0.040045757
0.034757484 -0.13644387 0.007017766 0.15137778 0.1604968 0.019863058 -0.085085645 -0.076436855
-0.00980591 0.081325166 -0.11685179 -0.09482999 -0.13405973 0.07653047 -0.11288432 0.09784929
-0.019567888 0.09781264 -0.0064116362 0.010820692 0.18473034 0.074237496 -0.11288508 -0.101108536
0.10432644 -0.025873916 -0.15022705 0.022530537 -0.11211999 0.19515882 0.1488788 0.07888257
-0.08331067 0.16835535 0.069834486 -0.072636895 -0.08441871 0.14980558 -0.033754084 -0.05269842
-0.044765215 -0.01065112 0.036859106 0.09164287 0.041215442 -0.070989996 0.149391 0.16251616
0.10002053 0.17058603 -0.04934167 -0.17618273 0.08541606 0.14884728 -0.011485707 0.07975344
-0.0033731833 0.19053571 -0.0021860066 -0.10314167 -0.0372663 -0.10151128 0.014561975 0.015180105
0.114054285 -0.026787277 0.111780204 -0.16069585 -0.07662298 -0.12112286 -0.018768722 0.15742396
-0.018334188 0.11619897 0.20231497 0.09028665 -0.09942268 -0.11353963 0.104120865 0.061009984
-0.017910918 0.14847596 0.15279007 -0.12835406 0.099261194 0.20935203 -0.0070119104 -0.06283041
-0.12487044 0.12943451 -0.025395527 0.086805105 -0.1392075 -0.014867817 -0.015574771 0.20927064
0.16044568 -0.048412606 0.03783502 -0.017340004 0.08851176 0.109438464 0.13096975 0.060764235
0.06372892 0.1407362 0.15032081 -0.113671355 0.16892189 -0.14366312 0.020091424 -0.08107249
-0.12266218 -0.032820985 -0.07009545 0.06785471 -0.07217912 -0.11189035 -0.18544418 0.023906246
-0.062278 -0.00371075 0.013875692 -0.008311507 0.0007506807 -0.016283344 -0.13842577 0.033646632

lstm.weight_hh_l0 f4 [128, 32]
00000000: 1234 02be 7807 2a3d e1f9 b63d d463 03be
00000010: 53b7 0bbe 86a4 943d c9a2 8fbd 834b cf3d
00000020: 70a0 2fbd 62d4 9a3d b428 073d c3af 2ebe
00000030: 8941 87bd 458f 09be 60fd e8bd db0b 21be
00000040: 842a c6bd c002 09bd 60f3 093e 5400 ea3d
00000050: a765 233e 0ea9 3d3e 9357 b23d a2c8 33bd
00000060: 0f18 1e3e f4c3 28bd 44a2 d03c 5cfb b5bc
00000070: b086 d0bd c850 09be 3ca6 453d 1e08 593e
00000080: 2f89 73bd cba9 d93c 175d 26be d8c1 93bd
00000090: 3388 9c3c 6000 42bd ea1e 353c 3f06 dfbd
000000a0: 4f46 053b 6b4e 08bd 7d33 58bd f948 283e
000000b0: 2ff5 d93d d6c6 56bd be63 393c 51e2 023d
000000c0: ef83 9ebc 6d3c c73d 8bae 003e 3cf9 37be
000000d0: 91b0 fcbd 84be 32bd 3724 35bd 7b84 f4bc
000000e0: 79d6 643c 74d0 cebd d00e 283c 1455 5cbd
000000f0: d9bd 343e 3579 47bc 2c11 123e 1b64 383e
00000100: 61f9 003d 828c bc3d a9e4 afbd 5844 0abe
00000110: fd9c fa3d 23ad cd3b 0c70 4ebd cd86 c2bc
00000120: 552b 5cbd 67cc 903d 35d0 333e 911a b2bc
00000130: 7157 f43a 444d f8bd ca7c 0b3e c4ad 90bd
00000140: 773e 8abd 9e89 22be a3f5 bb3d 7b00 19be
00000150: f00a a0bd ee92 7cbd 0e83 20be 2ab7 4abe
00000160: d853 1e3d bc5f acbc d85c de3d f909 0cbe
00000170: 0265 f63c 6a18 12be f1dd 4fbd ac32 bd3d
00000180: 0a66 9b3d 89b1 ebbd fdbc dd3d b85a 34bc
00000190: 4f9c 023e 1b72 143e 03df 0fbe bdb9 d9bd
000001a0: 701c 23be 2191 24be 8c16 0cbe 53bb af3a
000001b0: ca3b 26be bda7 ee3d 06e5 0b3e fdd9 713c
000001c0: afbd e33d 4c6e 9cbd f825 053e 2eb6 0abe
000001d0: 523a 1abe cc94 e13d a7d5 fcbd 1b28 aabd
000001e0: 05dc 22be 9647 eb3d 9abe ffbc 8c78 e33d
000001f0: 858e 243d 05b5 e03d 29c9 013e c9aa 243e
00000200: a2a4 373e f0e8 4e3e 0c7e b9bc ddcd 163d
00000210: e5a2 443d 3a81 61bd 7deb e8bc 806f 683d
00000220: 597c 023e 8b5f 8abd 1386 ae3d f88e 9bbd
00000230: 630a 99bd b4c7 a63c 320d db3d d608 17be
00000240: cb3b 333e 8378 11be a015 f33c 637c d8bd
00000250: 858c 083e 22ec c6bd 68c0 45be 1a77 b83d
00000260: e487 3fbc 9316 83bd 52a6 a0bd 6a72 893d
00000270: 1d0a 953d 026d b4bd b6a4 03be 2aad bbbd
00000280: 59aa d5bd 7fe4 e4bd 7615 2bbd f019 433d
00000290: b1ba 3a3e 8656 83bb 23fb e63d 9ad8 293e
000002a0: cd8f 2a3d 5456 06be e31d 1d3e 8794 48be
000002b0: 98c1 b83d a609 00be e5a1 17bd ee28 58bc
000002c0: f481 19be 0537 15be 4cc5 833c 1170 da3c
000002d0: 01cf 36bd d670 563e 3a43 3ebc 04b9 653d
000002e0: bb59 11be 2767 023d 9973 54be c501 bebd
000002f0: 237b ccbb 3738 1a3e ecf8 5ebb a4fe eabd
00000300: c4db 363c 8ef1 243e ef80 183e 7d92 883d
00000310: 2d1a 5a3c 298f 41be c62f 053e 0ba8 fabd
00000320: 5d37 453d 5cab 193d 919b 02bd b1b0 b63c
00000330: e59d c9bd 8fd1 833d 3e23 913c 0c94 03be
00000340: 2e59 05be 43b2 dfbd 754d c2bc e851 eebd
00000350: 4292 a03d 7c7d d9bd cffd 3f3c b1ae 423d
00000360: ab6b b3bc e779 ddbc c8f6 08be 3153 693d
00000370: 2f9e 7ebc 3607 a43d 9967 50bd 8b20 18bb
00000380: 3063 193e e05b ecbd d56d 81bd 8af4 713d
00000390: ef7a a43d 5924 fcbd e8b1 313e 1776 8b3d
000003a0: f434 b8bd 576d a9bc cae3 083d d981 56be
000003b0: c129 1fbe b3fa 8b3b 31a1 df3d 4454 d83d
000003c0: 32ee e3bd 1eb5 313d 29a3 4b3e 63ae 89bd
000003d0: ba07 abbd 44d7 0ebc cefe 7d3b 7a0b c13d
000003e0: e177 313e f150 a43d cd02 d8bd 5342 3d3c
000003f0: fbfe 513d e678 1d3e 08b9 283d 960f b83d
-0.12715176 0.04151103 0.08934379 -0.1283105 -0.13644151 0.07257943 -0.07013471 0.101218246
-0.042877614 0.0756004 0.032997802 -0.17059235 -0.06604297 -0.13433559 -0.113764524 -0.15727179
-0.09676078 -0.03344989 0.13471746 0.11425844 0.15956746 0.1852152 0.0870811 -0.04389251
0.15438865 -0.0412025 0.025468 -0.022214584 -0.101819396 -0.13409722 0.048254237 0.21194503
-0.059457 0.026570221 -0.16246448 -0.07214707 0.019107914 -0.04736364 0.011054734 -0.10889863
0.0020336097 -0.03327791 -0.052783478 0.16434087 0.10642468 -0.05243572 0.011315284 0.031954113
-0.01935002 0.09728322 0.12566583 -0.17966169 -0.12338365 -0.04363872 -0.04422399 -0.029848328
0.01396715 -0.10098353 0.010257438 -0.053792074 0.17650546 -0.012174894 0.14264363 0.18006937
0.031487826 0.09206487 -0.08588535 -0.13502634 0.122369744 0.006276743 -0.050399825 -0.023745919
-0.053752262 0.07070237 0.17559893 -0.021741183 0.0018641782 -0.12124112 0.13621822 -0.07064393
-0.067501955 -0.1587281 0.09177711 -0.1494159 -0.07814586 -0.06166356 -0.15674993 -0.19796434
0.03865418 -0.021041743 0.10857552 -0.1367568 0.030077461 -0.14267126 -0.05074877 0.092381805
0.07587822 -0.115084715 0.10827062 -0.011007957 0.1275494 0.14496653 -0.14049916 -0.1063113
-0.15928817 -0.16070987 -0.13680476 0.0013407267 -0.16233745 0.11653087 0.13661584 0.014761445
0.11120164 -0.07638225 0.13002765 -0.13546059 -0.1506131 0.11014709 -0.123454385 -0.08308431
-0.15904243 0.11488263 -0.031218816 0.11106977 0.04017498 0.10972027 0.12674393 0.16080774
0.17933896 0.20206046 -0.022643112 0.03681742 0.04800691 -0.05505488 -0.028432602 0.05674696
0.12742747 -0.067565046 0.085216664 -0.075956285 -0.07472684 0.020358898 0.10695876 -0.14749464
0.17503278 -0.14206128 0.029673398 -0.105706 0.13334854 -0.097130075 -0.19311678 0.09007092
-0.011690114 -0.0640079 -0.07844223 0.06711276 0.072773196 -0.08809854 -0.12855801 -0.09163888
-0.10432882 -0.11176395 -0.041768514 0.047632158 0.1823528 -0.004008117 0.11278369 0.16586533
0.041641045 -0.13118869 0.15343432 -0.19587909 0.090213 -0.1250368 -0.03701963 -0.013193352
-0.1499098 -0.1457177 0.01608529 0.026664766 -0.044631008 0.20941481 -0.011612708 0.056084648
-0.14194386 0.031836655 -0.20747222 -0.09277681 -0.006240265 0.15060507 -0.003402288 -0.1147435
0.011160795 0.16107771 0.14892934 0.066685654 0.013311905 -0.18902268 0.13006505 -0.12239083
0.0481485 0.037516937 -0.03188664 0.02230105 -0.09844569 0.064364545 0.017717 -0.12849444
-0.130223 -0.109226726 -0.023718575 -0.11636716 0.078403965 -0.10619637 0.0117182275 0.04752988
-0.021901926 -0.027035667 -0.1337539 0.056964103 -0.015540644 0.08009188 -0.05088005 -0.0023212756
0.14979243 -0.11540961 -0.06319777 0.0590711 0.0803126 -0.1231162 0.17353022 0.06809633
-0.08994475 -0.02068202 0.03342036 -0.2094797 -0.15543272 0.004271829 0.10919417 0.105629474
-0.111294165 0.043385617 0.1988646 -0.06722715 -0.08351083 -0.0087183155 0.0038756612 0.09426017
0.17330886 0.08023251 -0.10547409 0.011551457 0.05126856 0.1537815 0.041192085 0.08987348

lstm.bias_ih_l0 f4 [128]
00000000: 5aa3 423e 02ef fbbd 1df6 5b3e 2cf5 a0bd
00000010: 7c48 50bd 9446 7e3d 2099 153e 7a92 af3d
00000020: 47f4 3f3e 5b49 243d 4f25 ccbd 2df4 68bd
00000030: ca6a 843d b71a 4c3e 8fc9 943d 6aa0 4f3d
00000040: cbb2 c63d 7f19 e5bd cc79 2d3c 4f0e 133e
00000050: 38cb 35bd d30b ba3d 671c 833d 3b07 a93d
00000060: 8039 ed3d 4913 efbc b3a1 3a3e c378 e2bd
00000070: e2fb f63d 9394 b63c 9ee0 433e b71c 913d
00000080: d3a4 6d3e bdf2 0e3e c91d b4bd 2fdc 09be
00000090: b07f 743d f8be a2bd 55b9 f73d 2bbf 09bc
000000a0: 15b1 373e 457d a1bd 1eab f73d c020 b7bd
000000b0: f694 e43d b571 2a3d 065e 02be b22c c6bd
000000c0: b050 223e b2a5 09bd 8421 5b3d 5e72 89bd
000000d0: 8fc8 9e3c 9421 8dbb ba7c cc3d 4a6f dc3c
000000e0: 031b 0d3d eaca ca3d 0bf2 303e 511d 883d
000000f0: 0969 8fbd 2859 d9bd f4e8 acbd 46b1 0abe
00000100: c2d2 08be 7a38 85bd c0b4 283e 3d55 a53d
00000110: 29c2 163e 9242 3fbd 1ca7 d9bc a587 6bbc
00000120: f6e7 c6bd fff5 ccbd 3385 183e 3a5f fb3b
00000130: 43e2 1bbe 5667 dfbd 089b 3abd e30b 05bd
00000140: 4e6f 283e 388c 3dbe 8265 ae3d 3834 b23d
00000150: 4b50 1abd 617f 10be 669e adbd f3e4 04be
00000160: 6478 b6bc 7e19 53be f694 4bbe 1567 683c
00000170: 1a09 353e b441 243d fdac 09bd 1a90 213d
00000180: a900 563e b67f 8bbd a8d2 103e 4e77 233e
00000190: 0769 543e 27e5 213e fe76 b6bd 6ae8 0cbe
000001a0: 01d9 3abd cd9e 46bc 9637 dbbd 5fb8 bfbd
000001b0: ed0e 0abe 40a0 0f3e 14cf 0a3d 28e5 f23d
000001c0: 9a93 98bd ea42 bd3c cf29 cd3c 2f12 123d
000001d0: d262 413e 9314 96bd c66b ce3c 7752 2c3e
000001e0: c4f8 e43d 4fdb 56bd f3d1 be3d 54c4 99bd
000001f0: e1d4 20bd e1c3 123e 7598 7bbc 347f 203e
0.19007626 -0.123014465 0.21480604 -0.07859263 -0.050850376 0.062079027 0.14609194 0.0857286
0.18745528 0.04010902 -0.099680535 -0.05687349 0.06465681 0.19932066 0.07265007 0.050690092
0.09702071 -0.111865036 0.010588121 0.14360927 -0.044383258 0.090842865 0.06401902 0.08253332
0.11583233 -0.029184 0.18225746 -0.1105819 0.120597616 0.022287643 0.19128653 0.07085555
0.23207407 0.13959785 -0.087947436 -0.134629 0.059692085 -0.07946581 0.12095896 -0.008407394
0.17938645 -0.078852214 0.12093185 -0.089417934 0.111612245 0.041612346 -0.1273118 -0.09676494
0.15851092 -0.033605285 0.05349876 -0.06711267 0.019382743 -0.0043069813 0.09984727 0.026908536
0.03444959 0.09901984 0.17279832 0.06646217 -0.07002456 -0.10612708 -0.0844287 -0.13544187
-0.13361648 -0.06504913 0.164752 0.080728985 0.14722504 -0.046694346 -0.026568942 -0.014375602
-0.09712212 -0.100078575 0.14894561 0.007671264 -0.15223031 -0.10908382 -0.045558006 -0.03248204
0.1644871 -0.1851052 0.08515455 0.08701366 -0.03767423 -0.14111091 -0.08477478 -0.12977962
-0.022274204 -0.20615193 -0.19881043 0.014184733 0.17679253 0.040101722 -0.03361224 0.039444067
0.2089869 -0.06811468 0.14142859 0.1596348 0.2074319 0.15810071 -0.08909415 -0.13760534
-0.045617107 -0.012122822 -0.107039616 -0.09361338 -0.13482256 0.14025974 0.03388889 0.11860114
-0.07450028 0.023103196 0.02504435 0.035661872 0.18885353 -0.07328143 0.025197875 0.16828333
0.11180261 -0.052455243 0.093173884 -0.0750815 -0.039265517 0.14332534 -0.015356173 0.15673524

lstm.bias_hh_l0 f4 [128]
00000000: ec80 ab3d 0036 dabd 2866 18bc 4339 9ebc
00000010: 8314 253e 6368 55bd 1f89 373e aa56 e33d
00000020: 8ed4 0b3e fe18 3f3e eafe e5bd 9099 113e
00000030: 05eb 9a3d 3635 25bc 37b3 35bd e712 14bd
00000040: 1d26 913d 9de5 433c f63e 14be d539 163d
00000050: d614 883d 7ab5 2fbd 6e63 0d3e d796 babd
00000060: 3757 bebb 10dc 08be 75f1 203e 0bc8 6ebd
00000070: 8d71 aebd 5e4b 103e 5d06 cabd 0cce 3f3e
00000080: 04ef e13c fab9 8b3d 8867 b03d f2fd af3d
00000090: 0d2c cb3d 007d b2bc c46d 573d 9731 e8bd
000000a0: 760f f4bd cb45 05be 15af b93d 3346 233e
000000b0: 496b cb3d afa6 103e f52c 283c 07e8 133d
000000c0: cdef 383e 1d49 6a3d d910 253e e957 cb3d
000000d0: e177 323e 2ba3 4f3e 0171 843d 1263 0e3e
000000e0: 75b6 c9bd 4c65 d9bd 4153 df3d f8e9 2a3c
000000f0: 81b8 2f3e a2e6 bb3d d391 3d3e 5f18 0c3e
00000100: b58e 1b3e 4d04 143e 1dac 14be 991e 03be
00000110: 115a e7bd 67a9 f7bd 35e4 cabd a662 33be
00000120: d079 083c e02c 3a3e cac2 c33d 0b16 cfbd
00000130: da36 973c f146 d33d 688b 7fbc 0129 f3bd
00000140: cee2 263e ead8 0b3e fc59 f0ba 0e19 e23d
00000150: 7391 903d 3dff 82bd e432 f53c d5bf 1ebe
00000160: 1b21 dd3d fc36 a23c 68cd e9bb 36bd f9bd
00000170: 9676 a23d 46e5 87bd 1a3d 24be ae30 e3bc
00000180: 9207 4c3e e0a2 9c3d 467c 533e 9366 00be
00000190: 98d5 983b c5cc 14be 8508 b43d c532 143e
000001a0: da17 5bbd 1d3e 93bd bbdc 55bd ef6e fcbc
000001b0: 08ac 0dbe 0258 4f3d e8f7 b9bd 24af 92bb
000001c0: 3f6c bb3d e4b5 fbbd 45c4 243e a79e d1bd
000001d0: d0e2 4d3e bc97 44bd cc3c 483d 8308 273d
000001e0: 244b ccbd fca7 80bd 6bc1 59bc f99f 043e
000001f0: aa9b bebd d76e fb3d 21d3 243e b73e 08bb
0.08374199 -0.10654831 -0.0093017 -0.019314414 0.16121106 -0.052101504 0.17923401 0.11100514
0.13655302 0.18661878 -0.112302616 0.14218736 0.07564358 -0.010083487 -0.044360366 -0.03615084
0.07087348 0.0119566 -0.14477143 0.036676247 0.06644599 -0.04289768 0.1380746 -0.09110802
-0.0058087367 -0.13365197 0.15717109 -0.058296245 -0.08517752 0.1409125 -0.09864495 0.18730944
0.027579792 0.068225816 0.08613497 0.08593358 0.099205114 -0.02178812 0.052594915 -0.113375835
-0.119170114 -0.13014905 0.09066597 0.15944748 0.099325724 0.14126085 0.010264625 0.03610995
0.18060227 0.057198633 0.16119708 0.09928877 0.17428543 0.20277087 0.06466866 0.1390498
-0.09849254 -0.10615024 0.10904551 0.010431759 0.17160226 0.09174849 0.18512659 0.13681172
0.15191157 0.14454766 -0.14518781 -0.12804641 -0.11296476 -0.12092858 -0.09906808 -0.175181
0.008329824 0.18181181 0.095586374 -0.10111626 0.018458772 0.103162654 -0.015597202 -0.11873055
0.16297457 0.13656965 -0.0018337364 0.11039935 0.07058992 -0.06396339 0.029931493 -0.15502866
0.1079733 0.01980161 -0.007135082 -0.12194292 0.07932775 -0.06635527 -0.16038933 -0.027733173
0.19924763 0.076482534 0.20652875 -0.12539129 0.0046641342 -0.14531238 0.087906875 0.14472492
-0.053489543 -0.071895815 -0.052212458 -0.030814616 -0.13835156 0.05062104 -0.090804875 -0.004476445
0.09151506 -0.12290552 0.16090496 -0.10235339 0.20106053 -0.047996268 0.048886105 0.0407796
-0.099752694 -0.062820405 -0.013290743 0.1295165 -0.09307034 0.122770004 0.16096164 -0.0020789334

lstm.weight_ih_l0_reverse f4 [128, 100]
00000000: 2c0a a0bd 8f9a a7bd b1f8 aa3d 11b3 143e
00000010: 8c7f 28bd 444b b9bd 333a 293e 177b 31bd
00000020: a1a7 2cbd 9c79 7b3d 4333 04be 9ea0 543e
00000030: 2ba4 eb3d 15bd f4bd e37b 58bc 2cc8 c8bd
00000040: 50a5 82bd a59d eebc 4e6b cabd c3ba 91bc
00000050: 94a0 fc3d 9e38 7bbc 683b fd3d 4abf ccbc
00000060: bc00 26be 7e8d cabc 6d5b 5d3c e16c 313e
00000070: b206 5c3d d27d 19bc 0672 44be 2edd 01be
00000080: 7425 2dbe 842e cabc 659b 85bd fcba acbd
00000090: d795 063e e33e 85bc 5246 35bd 5aef 0dbe
000000a0: 5415 a43d 7f32 50bd 8e3e febd 8b1c 22bc
000000b0: 0ae5 f7bb eb6a 9fbd 121f a53d ba01 f5bd
000000c0: 4f64 13be bed6 a33d ed63 9c3d 12d3 87bc
000000d0: 1af7 63bd 9492 ed3d 8ae7 05be 1f07 fc3c
000000e0: ae73 efbd 5033 e33d 2578 2ebe 09d6 033e
000000f0: 9b03 3bbe 2ecb 09be ac7d 10be 2082 1b3e
00000100: a93a 5ebe 92c3 6e3d 3182 a9bd 55c2 03be
00000110: de51 203b c588 af3c 1155 883d fa85 e5bd
00000120: 4fca c1bd 7f56 f0bd bd1d 843c 09b6 623d
00000130: 2208 81bd c657 e0bc 472a 2a3d 2c41 d83d
00000140: 86e9 213e 1a67 f73d 622d 14bd 9b3f d7bd
00000150: 14ec 363e 03c6 483e 124a b0bd 31ab 0b3e
00000160: b7f5 18be d419 acbd 2ff1 643d 7a8e e93d
00000170: a506 543d a6d0 2c3d af97 74bb db03 c9bc
00000180: 4b9a e33c 6410 0e3e 501b f93d 8eca 19be
00000190: d621 563d b240 9f3c 34fc cb3d 1d87 fe3d
000001a0: f87c e13d b843 833c 5963 dabd e209 3abd
000001b0: b120 37bd d305 113e cc36 f93d e276 093e
000001c0: a80b ffbd c9e9 20be c089 eb3d dfee d1bd
000001d0: b457 843c fff9 953d c6a8 5ebe 2e74 b63c
000001e0: c647 4dbd 2fdc 253e fc69 05be c9f3 0d3e
000001f0: b008 0bbc 1113 fd3d bc32 883d 17dc 3cbe
00000200: 08b3 0abc 0a0e 81bc 93f5 79bd 4fde fd3d
00000210: 6a73 ffbd abe2 2fbe fad9 f4bd 057b ff3d
00000220: e82d d13d 6c1b 123e 948d c43d ede5 283b
00000230: 6dd4 c13d ca42 ea3d 97df 753d 3c83 7a3d
00000240: 503c 463d cd0c 8fbd e0c8 ecbd 490e bb3a
00000250: 874e b63d e965 85bd d289 3a3e 0f75 02be
00000260: 8af4 573e 8a5d 51bd 8e54 2cbd 8660 30be
00000270: 09d3 183e 14b0 063e 39b7 223e 67ec 03be
00000280: de46 503d 7aa6 ebbd 8924 8cbc 80b6 a33d
00000290: 9430 8fbd 1a0f 91bd 201b 86bd 70a3 8b3c
000002a0: 0366 ef3d 8e99 7c3d c66f f83d cda7 cabd
000002b0: 0c8e 113b 7d17 ae3d 06ad fc3d 153f efbd
000002c0: 22ee 1e3e 9331 67bd 047e 51be bac7 0ebe
000002d0: de19 443d 3181 3ebe f6dd fe3d fbc5 573d
000002e0: 9cdb 93bd cff0 34bd 74df 62bd 97f8 c5bd
000002f0: 79ec 0dbe abba 44be 28f7 68bd 9fcf 713d
00000300: d4b9 d63d 178a 0b3d 004f 14be d273 b53d
00000310: e789 1c3d 46f6 063e b7d4 093e 4cfd 123e
00000320: ae6c aa3c c39e 023d 26f0 f8bd 28b4 85bd
00000330: 6194 b13c 521b 32bd 1702 af3d 636e 1bbe
00000340: 9deb 9b3d c6c5 1fbe 5bbd e2bd a860 ac3c
00000350: 8131 1d3e 23fa c73d 79ab 46bd 92a7 7e3c
00000360: 8e53 193e 13b4 1a3e 0ac8 113e 35a7 403e
00000370: 67e7 353e da9e 153e 61b1 20be a597 0b3e
00000380: 74d1 0cbe da3b 05bd 21c0 84bd 9491 653d
00000390: ac4c 0db9 16fe a3bd 1780 43be cabd 0dbe
000003a0: f10a 40bd af7f 513d 9b9a dbbc 7d89 a8bd
000003b0: 88be 033e 8331 9a3d 6fc1 203d 067f 6abd
000003c0: 6216 20be 7924 dbbd c3f4 b5bd 300d d9bb
000003d0: f800 fcbd 4bf6 22bd 7fde 0b3e fcc7 42bd
000003e0: ca2a cabd 3515 fbbc 4a84 1dbe 019c 15bd
000003f0: bd79 363e 6a90 a33d cb2d 31bd 82ff 2abe
-0.0781444 -0.081837766 0.08348215 0.14521433 -0.041137263 -0.09047559 0.16526107 -0.04333028
-0.04215205 0.061395273 -0.1291018 0.20764396 0.11505922 -0.11950127 -0.013213131 -0.09803805
-0.06379187 -0.029127905 -0.09883748 -0.01778925 0.12335315 -0.015333323 0.123648465 -0.024993557
-0.16211218 -0.024725672 0.013510567 0.1732669 0.053717323 -0.009368377 -0.19184121 -0.1268203
-0.16908818 -0.024680384 -0.0652378 -0.08434102 0.13143097 -0.016265338 -0.044256516 -0.13860837
0.080118805 -0.050829407 -0.12414275 -0.0098945005 -0.0075651454 -0.07784065 0.08062567 -0.1196322
-0.14393733 0.07999943 0.07636247 -0.016580138 -0.055655576 0.11600223 -0.13076606 0.030765114
-0.11691986 0.110937715 -0.17038019 0.12874617 -0.18263094 -0.13456413 -0.1411044 0.15186357
-0.21702065 0.05829198 -0.08276785 -0.128671 0.002446286 0.021427521 0.0665685 -0.112071946
-0.094624154 -0.11735248 0.016127462 0.055349384 -0.06300379 -0.027385604 0.041544225 0.105593055
0.15811738 0.12080212 -0.036176093 -0.10510179 0.17863494 0.19606785 -0.08607878 0.13639523
-0.14937483 -0.08403364 0.055894073 0.114041284 0.05176415 0.04219117 -0.0037321856 -0.024537971
0.027783534 0.1387344 0.121634126 -0.15018675 0.052278362 0.019440029 0.09960213 0.124281146
0.11010164 0.016023502 -0.1066348 -0.04541958 -0.04470891 0.14162378 0.12168655 0.13424256
-0.12453395 -0.15714182 0.11500883 -0.10250639 0.016155101 0.073230736 -0.2174407 0.022272196
-0.050117277 0.16197275 -0.13028711 0.13862528 -0.008485958 0.12357152 0.06650302 -0.18443333
-0.008465536 -0.015753765 -0.061025213 0.123959176 -0.12473185 -0.1717631 -0.11955638 0.12474636
0.10213834 0.14268273 0.095973164 0.0025771812 0.09464345 0.1143852 0.060027685 0.06116031
0.048397362 -0.069848634 -0.11561751 0.0014271225 0.08901697 -0.065135784 0.18216637 -0.12739967
0.21089378 -0.051114596 -0.042072825 -0.17224321 0.14924254 0.13153106 0.15890206 -0.12883149
0.050848834 -0.11506362 -0.017107265 0.079937935 -0.069916874 -0.070829585 -0.065481424 0.017045707
0.11689379 0.06166988 0.12130694 -0.09895287 0.002220991 0.08500574 0.12337689 -0.11681954
0.15520528 -0.056443762 -0.20458227 -0.13943377 0.04787623 -0.1860397 0.124446794 0.052679043
-0.072196215 -0.044174965 -0.055388883 -0.096665554 -0.13859738 -0.19211833 -0.05687633 0.059035894
0.10484663 0.03406724 -0.14483261 0.088599816 0.03821745 0.13179883 0.1346005 0.14354438
0.020803776 0.03188969 -0.1215518 -0.06528503 0.021677198 -0.043483086 0.085453205 -0.15178828
0.07613299 -0.15602788 -0.11071273 0.021042183 0.15350915 0.09764507 -0.048503373 0.015542882
0.1497328 0.15107755 0.14236465 0.18813784 0.17764054 0.14611378 -0.15692665 0.13632067
-0.13751775 -0.032527782 -0.06481958 0.056047037 -0.0001347537 -0.080074474 -0.19091831 -0.1384193
-0.046885435 0.05114716 -0.02680712 -0.08229349 0.1286565 0.07528975 0.039246973 -0.057250045
-0.15633538 -0.10700316 -0.08884575 -0.0066238865 -0.12304872 -0.039785665 0.13659094 -0.047554
-0.098714426 -0.03064976 -0.15382496 -0.03652573 0.17819877 0.07986529 -0.043256562 -0.16699031

lstm.weight_hh_l0_reverse f4 [128, 32]
00000000: ce45 d53d edb7 1c3e d64b aebd 7269 ad3d
00000010: 7707 bdbd 8c49 efbd 2997 cabd 47d7 1a3e
00000020: 5192 71bd e1e9 aabd c792 ddbd d25a f7bc
00000030: a5ee dcbd f42f 3f3e c8fa 9abd e821 51bd
00000040: c83a 013e 0ffe 243d 130d 3bbd d8ef c0bd
00000050: 724f 8b3d 4cb5 173d aee7 443e 80cf 713c
00000060: d22c 2bbe d4a0 89bd fc4b 09be f69f 643d
00000070: 2536 b43d 5900 113c 947c 6a3d 3621 2a3e
00000080: 110f 69bd 26b1 21be 1b2c 0f3e afac 45be
00000090: c2a6 543d 319e d7bc 2ac3 a8bd cef4 19bd
000000a0: 4b9f c6bd be08 23bd 5230 333e 30f9 f63c
000000b0: 29ee ed3c 485c 383e 66e5 f2bd eee2 d8bd
000000c0: 024f 57bd a86f e43d 4d4e d1bd 54da 0f3e
000000d0: 4640 1a3e bbb6 ad3c 7dc5 8cbc bcd6 0cbe
000000e0: a260 393c c9b7 343d ea60 f33c 981d 3dbe
000000f0: 8137 14be d499 a6bd 5e9c 8c3d f39d 2c3e
00000100: dcef 3a3d 3b8d d53d cf6e 3d3d 8dac 51be
00000110: 8b1b 5bbd 2937 03be 08f3 243e c16c 8abd
00000120: 4d7c e7bd a534 f53a 690d ebbd eb57 353d
00000130: 32c3 833c b402 143e f5c3 28bd 1102 b3bd
00000140: 4f42 d03d d217 07be 7218 833c 7f99 f93d
00000150: 3f17 a3bd c8b8 283d 86ac cebd fb10 5bbd
00000160: 3b71 b9bd 40a1 e13d 8761 0b3e 7a59 24be
00000170: 5d93 3ebe 785e 29bd 16f0 323d d4b8 523e
00000180: 43f1 823d 4034 27be a9ff e33d 969a 31be
00000190: a297 fdbd 5c2b 12bd 99db 6f3d eb44 4e3e
000001a0: bfa1 bc3d 22bf 89bd 5a10 8fbd fbbb 48be
000001b0: 900e 72bb f55e a5bd afbe 29bc c5fa 933d
000001c0: aa00 65bd 3051 06be 9e02 5a3b 610e 30bd
000001d0: 51b1 7cbd fe80 14be fbaf d93d 3d8d 9c3d
000001e0: 1b9b 8c3d 447a b33d 7160 52bc b0d3 53bd
000001f0: fb8e 23be 584f a9bd fe26 9c3d 9e0a 8f3d
00000200: cc51 31be 9d26 ba3d f0cb 233e 3145 f83d
00000210: 08b2 8f3d 697a 3d3e 165d 433e f94a 063e
00000220: e5a0 963b d966 05be ed8d 4fbe ec74 6bbe
00000230: 5436 0cbe 4b35 813c ba66 febd f0d4 f23c
00000240: 3cb5 4dbe 74b0 843d 63d5 e7bc 3a16 203e
00000250: 4540 21be 64e3 ca3d 53ba c4bc 761b 033e
00000260: 9784 233d c80c 54be a28d 063d c379 fb3d
00000270: e27f 063e 3740 cdbd 7287 d1bd 38d5 f03d
00000280: c4ac 73be ca17 0fbd d448 3b3e 54e8 21be
00000290: 7da8 61be 02e9 1d3e 60fc 693e 3092 d5bd
000002a0: 9e4a f9bd 3c22 7bbc 185f 913d 3cb4 97bc
000002b0: 8da1 813c 94e9 693e b8bf d5bd 2ffd 09be
000002c0: 7fbc 583e 0bb6 6dbe c577 a43d 59b6 4b3e
000002d0: 267a 1abe 8645 1fbe 0e34 a9bd d5a2 6dbc
000002e0: dfc3 cc3d 0c58 b8bc 394c bf3d 22e8 683c
000002f0: 9dad 61be 7869 a2bd a483 6cbe 2d2f be3d
00000300: 49ac 873d b1fa 0dbe a97f b5bd 7fac b63d
00000310: 6d1a 343d 2193 4a3e e889 aabc e4ef 94bc
00000320: 5ce6 f73d a7a6 cd3d dc75 29be aa18 093e
00000330: 4d00 9ebd d37e 423e 428e d7bc df5e 6abd
00000340: c312 20be aacf 39be 742c 64bd 9d2c e4bd
00000350: 9fbd 29be aa50 303d 5938 f7bd 801e 093e
00000360: 3c05 35be 28e1 4fbd f075 403d afb5 5f3d
00000370: 9d1b dd3d 99d5 84bd f9c0 1bbe a208 ccbd
00000380: 1dac 0ebe 0840 f6bd 3f7a 4cbc b4a8 d43c
00000390: 54bc 7fbd 5a99 f23d 9576 143d 58cf bfb8
000003a0: 33cf d1bd e28c e13d 9b5e cabd 3085 edbd
000003b0: ab92 20be 20c0 f33b 5846 0dbe 7aaa 4e3e
000003c0: 9512 bf3d f910 6a3d 92d8 c4bd a0d5 ec3d
000003d0: 65a5 92bd 78e7 54be 6671 d83c 4b38 1dbe
000003e0: 5844 c7bc d97b dfbc f9a9 043d 6e8d d93d
000003f0: 8428 3abd 478a c0bd a20a 08be 4451 333e
0.10413705 0.15304537 -0.08510558 0.08467378 -0.092299394 -0.1168395 -0.09892113 0.15121184
-0.05897743 -0.0834539 -0.10819011 -0.030194674 -0.10787705 0.18670636 -0.07567364 -0.051057726
0.1262008 0.04028135 -0.045666765 -0.094207466 0.06802262 0.037038133 0.19229004 0.0147589445
-0.16716316 -0.06720129 -0.13407892 0.055816613 0.0879939 0.008850181 0.057247713 0.16614231
-0.056899134 -0.15790233 0.13981669 -0.19304155 0.051916845 -0.026320549 -0.082403496 -0.03758698
-0.096983515 -0.03980326 0.17498901 0.030148119 0.029044228 0.18003953 -0.118601605 -0.105901584
-0.052565582 0.11154109 -0.10220013 0.1404813 0.15063581 0.021205297 -0.017184014 -0.1375379
0.011314543 0.044120584 0.029709298 -0.1846832 -0.14474298 -0.08134809 0.06865762 0.16857128
0.045638904 0.10427328 0.046248253 -0.20475979 -0.053493064 -0.1281401 0.16108334 -0.067590244
-0.11303005 0.0018707706 -0.11477167 0.0442733 0.016084287 0.14454156 -0.041202504 -0.087406285
0.10168897 -0.1319268 0.016002867 0.1218748 -0.07963418 0.041191846 -0.100915 -0.05348299
-0.090548 0.11017084 0.13611422 -0.16049758 -0.18610902 -0.041349858 0.043685995 0.20578319
0.06393673 -0.16328526 0.11132748 -0.17344126 -0.12382437 -0.035685882 0.058559034 0.20143478
0.09210538 -0.06725909 -0.06985541 -0.19602959 -0.003693495 -0.08074752 -0.010360404 0.07225565
-0.055908836 -0.13116908 0.003326572 -0.042982463 -0.06169254 -0.14502332 0.10629269 0.076441266
0.068655215 0.08763555 -0.012840376 -0.051715553 -0.15972511 -0.08267087 0.07624625 0.06984447
-0.1731636 0.09089396 0.15995765 0.12122572 0.07016379 0.18503727 0.19078478 0.13114537
0.004596817 -0.13027515 -0.20268984 -0.22993821 -0.136926 0.015772482 -0.12421937 0.029642552
-0.20088667 0.06478968 -0.028299993 0.15633479 -0.15747173 0.099066526 -0.024014628 0.12803444
0.03992137 -0.20708 0.032849915 0.122790836 0.13134721 -0.10022014 -0.10230912 0.11759418
-0.23796374 -0.034934796 0.182895 -0.15811282 -0.2203693 0.15420917 0.2285018 -0.10428274
-0.12172435 -0.015327986 0.07098216 -0.01851856 0.015824104 0.22843009 -0.10436958 -0.13475488
0.21165656 -0.23213975 0.08030657 0.19893779 -0.15085658 -0.15553865 -0.08261882 -0.014504154
0.09998297 -0.022502922 0.0934071 0.014215501 -0.22038884 -0.07930273 -0.23097092 0.09286342
0.06624658 -0.13865162 -0.0886224 0.0891962 0.043970514 0.19782688 -0.020817712 -0.018180795
0.121044844 0.10041552 -0.16548866 0.13388315 -0.07714901 0.18993692 -0.026312951 -0.057219382
-0.15632157 -0.18145624 -0.055706456 -0.11141322 -0.16576241 0.043045677 -0.12071294 0.13390541
-0.17677778 -0.050751835 0.046987474 0.054616626 0.107962824 -0.06486053 -0.15210332 -0.09962584
-0.13932844 -0.12023932 -0.012480318 0.02595935 -0.062435463 0.11845656 0.0362459 -9.1462105e-05
-0.10244598 0.110131994 -0.09881326 -0.11597669 -0.1568095 0.0074386746 -0.13796365 0.20182219
0.09329716 0.057145093 -0.0961162 0.11564183 -0.07160453 -0.20791423 0.02642126 -0.15353505
-0.024324581 -0.027280735 0.03238866 0.10622679 -0.045448795 -0.09401374 -0.13285306 0.17511469

lstm.bias_ih_l0_reverse f4 [128]
00000000: 1d6f 6ebd 7a24 963d 7979 053e 0bef d2bd
00000010: 36ce e0bc b16e db3d 6ead 1a3e dbe1 c83d
00000020: e47d d5bd 486c 323e 5025 0abe b097 7fbd
00000030: 0555 05be 840b edbd 5270 18be ae52 8c3d
00000040: 8828 253e 6724 01be 180b 363e da33 56bd
00000050: 55df 4b3d 783c 57bc 480c 063e 69f9 213e
00000060: 8660 f9bd 853c 243e fcbe 1f3e 45ff 373d
00000070: 82af 4c3d a379 cebb e9d0 3e3e 108d 0537
00000080: 2828 163e 999b fdbd 2ca2 823d cc5b 443e
00000090: bc54 0f3e 02f4 d13d 062d ed3c be5e 9fbd
000000a0: daf4 6ebd bd29 f13d cd26 8f3d 591c 1e3e
000000b0: 1db8 033e 35e9 bb3d c756 c7bd dbba e13d
000000c0: f787 373e 7ba8 c93c b5b0 a4bd 4ba1 c2bc
000000d0: 25a4 9c3d 9c73 0dbe c77e 383c 688d 8cbc
000000e0: 2a71 ea3d 94d8 403e b740 593e 58ec a93c
000000f0: 35e5 2d3e a0f0 c33b c6f9 843b 2fab 443e
00000100: 7149 f0bd 793f 3cbe 0102 163e 1a2b eabd
00000110: 6424 b93d 0636 183d 0b3d 373e 9174 04be
00000120: bab0 d4bd ec27 e0bd 8e62 f3bd f224 e7bc
00000130: 6fe7 3e3d 138b dd3c 67d7 323d b4b3 20be
00000140: 13e2 97bd acfc 0cbd ab76 f23d 3360 723d
00000150: 1305 03be 7694 87bc 2503 e83c 5297 2e3d
00000160: 9a45 52be 212b 03bd 4610 2f3e 1411 55be
00000170: 232d 263d b229 02be 5a5b 37be 418f ce3d
00000180: 22c0 a6bd 4fdd 06be b227 11be 7a95 873d
00000190: dc3a 3a3e 5415 53bd c1a7 a7bc c5e4 1e3c
000001a0: cfbf d33c b3a8 d8bd 40f3 c03d e44e 713d
000001b0: b711 e53d 18a6 86bc 1b1e aabb 0a9a 3c3e
000001c0: 00ec f33c 1ed2 42bd c31d 64bd 55c4 abbc
000001d0: 7bf5 b9bc 2ac4 ea3d 534b 4f3e f835 a03d
000001e0: 7792 9c3d b333 263e 5aa0 04bd 0466 8dbd
000001f0: acdc 4d3e 11eb 8c3d e9c5 26bd 2730 f33d
-0.058211435 0.07331176 0.1303462 -0.102995 -0.027442079 0.10714472 0.1510522 0.098087035
-0.10424402 0.17424119 -0.13490796 -0.06240052 -0.13020714 -0.11574462 -0.14886597 0.068517074
0.16128743 -0.12611543 0.1777767 -0.052295543 0.049773533 -0.0131369755 0.13090622 0.15817799
-0.121766135 0.16038711 0.15600199 0.04492118 0.049972065 -0.0063011213 0.1863438 7.960261e-06
0.14663756 -0.123831935 0.06378588 0.19175643 0.13997167 0.10251619 0.028952133 -0.077817425
-0.058338977 0.11775539 0.069898225 0.15440501 0.12863202 0.0917534 -0.09733348 0.11021968
0.1792296 0.02461647 -0.08041517 -0.023758551 0.076484956 -0.13813633 0.011260695 -0.017157272
0.114473656 0.18832618 0.21216093 0.02074258 0.16981967 0.0059796125 0.0040580956 0.19205926
-0.11732758 -0.18383588 0.14649202 -0.11434002 0.09040144 0.037160896 0.1789438 -0.12935092
-0.103852704 -0.109451145 -0.11884032 -0.02821586 0.04660743 0.027043855 0.043662455 -0.15693551
-0.07416167 -0.034420654 0.1183904 0.059173774 -0.12794904 -0.016550284 0.028321812 0.04262478
-0.20534363 -0.032023553 0.17096052 -0.20807296 0.04057039 -0.12711218 -0.17905942 0.10085917
-0.08142115 -0.1317036 -0.14175299 0.06620307 0.18186516 -0.051534012 -0.020465733 0.009698098
0.025848297 -0.10579052 0.09421396 0.058913127 0.111850195 -0.016436622 -0.005191577 0.18418136
0.02977562 -0.047563665 -0.055692445 -0.020967642 -0.022700062 0.114631966 0.20243578 0.07822794
0.076451235 0.16230659 -0.032379486 -0.069042236 0.20103711 0.06880773 -0.040716086 0.11874419

lstm.bias_hh_l0_reverse f4 [128]
00000000: 0b91 a5bd 2dad 083e 1811 103e 99fb 4e3e
00000010: b84e 493e 44ed 733e e459 dc3d 9818 203e
00000020: 325b 133e bb38 d6bd b9db 563e b2d7 803d
00000030: 3332 3c3e 7a07 163e 1c09 1ebe 71d1 803d
00000040: f9cb 363e 6afa 893c 4293 313e a3a3 85bd
00000050: 7eae 9e3d 53d1 2ebe 20ec 4e3e 9b4a fabd
00000060: b5ff eebd c6be 0abd 1669 18bd 95d0 273e
00000070: 3a0b 3bbd 1b6c 60bd c5a2 f3bd 8bf2 2b3e
00000080: ef9d f1bd 2512 503e 1558 133e 1bea 233e
00000090: 36c0 7f3d 04fe e2bd eea0 ae3d cf09 1dbd
000000a0: 3114 2e3e b432 de3c 1d08 14bd ed78 e5bc
000000b0: 17a2 6dbd 54ee ce3d 4973 563c 58be 063e
000000c0: 71b1 3e3c b6a0 1d3e e536 53bd 6846 173e
000000d0: 1d85 1c3e d00c 99bd f9c6 433e 3745 1dbd
000000e0: 53ff b4bd c600 913d b951 a1bc 291f 273e
000000f0: 3ea1 053a d252 103e 0770 eabd 1a0c 0a3e
00000100: 883d 2ebe 0ff7 093e 66c5 493c 1b7d 283d
00000110: fde4 32be a7fe a6bd 241d e5bd 9b58 243e
00000120: 4c69 a23c 083b 00be 3cdc 5d3d d9d9 ea3d
00000130: 0518 37be 846a da3d 3447 4bbd cd13 843c
00000140: 24c3 0bbe 0cba ba3b 7533 033e bc7c 003e
00000150: de38 733d 3d17 033e 8757 a4bb c4a7 e2bd
00000160: 465f 823d 992c 0c3e 1c4d f53d 7883 c3bc
00000170: 419b c53d 45bf 613d cd0d 043e aff6 0b3e
00000180: f67a 63bd 01b4 4d3e b4f0 bbbd 40c0 98bd
00000190: c5f3 f5bb 24c8 513d d61b 303e 7fb4 383e
000001a0: e47a 2f3e ef5d d93d dbc4 89bb c60c 793c
000001b0: e50f a43d e581 01be 1ef9 92bd a028 2bbc
000001c0: 21e8 22bd 4d94 3f3d b662 00bc 88b4 2fbe
000001d0: cac1 debd 1eeb 0b3e f608 bdbd 681b 223d
000001e0: 252e ab3d 6bb6 81bd 78fa 443e d580 b6bd
000001f0: 710c b5bd 68f8 953d 2162 f5bd 53b5 de3d
-0.080843054 0.13347311 0.14069021 0.20213164 0.19658935 0.23820978 0.10759333 0.15634382
0.14390257 -0.10460039 0.20982255 0.062911406 0.18378524 0.1465129 -0.15433162 0.06289948
0.17851247 0.01684304 0.1734133 -0.06525352 0.077481255 -0.17072038 0.20207262 -0.12221261
-0.11669866 -0.033873342 -0.037209593 0.16388161 -0.045665003 -0.054790597 -0.1189628 0.16791742
-0.117977016 0.20319422 0.1438907 0.16007273 0.062439166 -0.11083606 0.08526789 -0.038339432
0.1699989 0.027123787 -0.03614055 -0.028011763 -0.05801591 0.10104051 0.01308901 0.13158548
0.011638985 0.15393338 -0.051566023 0.14772952 0.15285154 -0.07473147 0.19118871 -0.038396087
-0.08837762 0.07080226 -0.019692289 0.1632048 0.00050975743 0.14094093 -0.11447149 0.13481179
-0.1701566 0.13473152 0.01231513 0.041134935 -0.17470165 -0.0815404 -0.11187199 0.16049425
0.0198256 -0.12522519 0.05416511 0.114673324 -0.17880256 0.106648475 -0.04962845 0.016122723
-0.13648659 0.005698448 0.12812598 0.12547582 0.059380405 0.12801833 -0.005015317 -0.11067155
0.06365828 0.13688888 0.11977598 -0.0238664 0.09648753 0.05511405 0.1289589 0.13668321
-0.055537187 0.20088197 -0.0917677 -0.07458544 -0.0075058662 0.05121626 0.17198119 0.18037604
0.17136723 0.106136195 -0.004204375 0.015200799 0.08010844 -0.12647207 -0.071764216 -0.0104466975
-0.039772157 0.04677229 -0.0078360345 -0.17158711 -0.10876806 0.13663909 -0.09230225 0.039576918
0.08358411 -0.063336216 0.19236171 -0.089112915 -0.08840264 0.0732277 -0.11981607 0.108744286

lstm.weight_ih_l1 f4 [128, 64]
00000000: 09e4 473e ac6f 2ebe 97e7 94bc 9424 c63d
00000010: ccfd 1dbe 142e 613d b6f4 19be aff2 c5bd
00000020: 9083 043d b7e6 e43d d65e 323e 34f5 19be
00000030: d696 43bd f8ea 203e 52a5 d83d 851a ca3b
00000040: ed41 a5bd 26f2 25be d3a2 283e 8622 20bd
00000050: 4f40 14be 7b46 05be 1c84 e73d d802 223e
00000060: bc1f d6bd d796 afbd c885 883d 9178 0abe
00000070: 02c9 03be 3e54 263b 26d4 c23c 6f53 983c
00000080: 94f1 033c 89da 083c b0c3 39bd d10b 1bbe
00000090: 0e87 07bc 1a76 85bd 81eb 4ebc 18ec 9a3c
000000a0: 80fa d5bc 7dd6 f53d 6e92 e83d de6d fd3d
000000b0: a55c 4abe 34c7 8a3c 07ca a53b e970 b63b
000000c0: 5e89 0bbd 0af3 073e 8b04 9cbc 2421 8b3d
000000d0: 8df9 90bd abeb 933d 548c 373e dded 113e
000000e0: 9d74 37be afa0 1bbd 057a eebd b870 2abe
000000f0: 2446 1dbe a725 d93c b6c8 d13d ba0f 9bbd
00000100: 5144 cfbd dd6b 1ebe 7434 823d 3bd1 da3d
00000110: 42b3 e3bd 3ff2 7a3d fed0 bebd 5f95 06be
00000120: 09e6 363d 3b3b 273e 7771 f53d 06da 873e
00000130: 53de 21be a77f 843d a53b 453d 883a 2b3d
00000140: 99d1 d33d 700a 3bbe 0540 1e3e 93b8 a03d
00000150: 7505 1b3e 233d eb3d 3e39 47be 764f d03d
00000160: 2dac 29bc 9f77 a93d bb51 f23d d52c e6bd
00000170: 797a 23be e4c9 393e abb2 9bbd c4c0 003e
00000180: 0b70 fe3d 3daf 323d fbb4 f33d fb16 2a3d
00000190: bc15 36be 56f8 053e 6817 c03d 1700 c73d
000001a0: 6c03 1dbc 30f7 ce3d fd71 8d3d d151 edbd
000001b0: faa5 fa3c 117e 053e b8e9 f2bd 519c a4bb
000001c0: 288b 05bd 24ac a0bd 2b6b b7bd 1b63 b33d
000001d0: 34ec 1ebe 21e5 28be 738d 60bd fb27 1d3e
000001e0: 0315 903d 1f24 36be 0aef 7abd a551 0bbc
000001f0: 7e84 ce3d 6a3f 9b3d 2e0f 0a3d f380 88bd
00000200: 0ca6 fa3d 5017 863d b0b7 9cbd 6448 103e
00000210: 362f fc3d 3c99 04bd ecd9 283e 7ae4 e2bd
00000220: 1d8b 4c3d 8325 83bd a362 413e 80bf 033e
00000230: 1e91 083e af57 4c3d 0dbf 08be 58d9 aa3c
00000240: c308 013e 4c9d d6bd e37f a7bd aaa6 e93d
00000250: dc53 60bd 1153 153d c0ba 713d 8b7b 95bd
00000260: 81b1 dfbd 7bf9 453d 116d b4bc caca 16be
00000270: c813 01be 71ad 9abc e496 18be e25a 2d3e
00000280: ea54 1fbe e73d 01be 6ef1 463e 4ef9 4a3c
00000290: c823 843d 0ef1 20be 1a17 343e 2241 9dbd
000002a0: 3410 7cbd 02a3 3ebe 9b4c ebbd a0a6 f6bd
000002b0: e110 0bbe c9cd 3d3e 852c 803d 4df7 473e
000002c0: 7c8e 8d3d 4382 41be e390 973d f9f6 893c
000002d0: cd33 023e ff8f 85bd 8f6c 863c 9688 493c
000002e0: 16a1 973d f1e4 13bd f37b ee3d d9c7 e1bc
000002f0: ffa7 f33c d411 04be c5a0 e1ba 50c3 5dbd
00000300: d7c3 90bd 205d e93d 7b6b 583a affd 9ebd
00000310: b275 6fbd dfdc 6abc 163d 403e c485 513d
00000320: 2767 babb 6441 1b3d d157 1d3e 556d b9bd
00000330: 133d 203c e7c0 89bd 3e21 da3d 16b0 53be
00000340: 6254 5d3d dbd0 3cbe 385e 3a3e c57c d63d
00000350: 7c26 9abd f0b6 3f3e dc82 49bd 4df4 a33d
00000360: 621c d43d 7138 2039 c75a 06be c9f3 003d
00000370: 2a7f 953d 1de8 8fbd 1145 073b bbc4 58bd
00000380: 0ca8 a13d f866 47be d77c 14bd c542 f93c
00000390: 2fc6 c43c 1a28 7d3c f3fa e23c b769 e43b
000003a0: a289 e8bd 7538 713d 03a6 4cbe d49d 373d
000003b0: b631 443d ac71 e6bd 8fef 11be 6b70 21be
000003c0: 0df7 9b3d b05c 623d cdf4 a13c a9c5 e3bd
000003d0: 16e4 653d 29ad 033e e569 823d f121 e93d
000003e0: 49d7 093e 69b0 c63d 6b94 47be b6d2 1cbe
000003f0: 387e 283a 1096 d6bb d282 0abe e5db 333e
0.19520582 -0.17034787 -0.018176837 0.096749455 -0.15428847 0.054975584 -0.15034756 -0.09665429
0.03235203 0.11176818 0.1741899 -0.15034944 -0.04775127 0.15714633 0.10578407 0.006167712
-0.08069215 -0.16205654 0.16468363 -0.039095424 -0.14477657 -0.13015167 0.11304495 0.15821397
-0.104552716 -0.08573692 0.06666142 -0.13522555 -0.12869647 0.0025379802 0.0237828 0.018594472
0.008053202 0.008352884 -0.045352638 -0.15141226 -0.008271946 -0.06516667 -0.012629391 0.018911406
-0.026120424 0.12003801 0.11356054 0.12374471 -0.19761904 0.01694069 0.005059484 0.005567659
-0.03406655 0.13276306 -0.019045135 0.067934304 -0.07078848 0.072226845 0.17924625 0.14250894
-0.17915578 -0.037995037 -0.11644367 -0.16644561 -0.15358788 0.026507212 0.10243361 -0.07571359
-0.10120452 -0.15470834 0.06357661 0.10684439 -0.11118175 0.06126618 -0.09317206 -0.13142918
0.044652972 0.16331188 0.11984532 0.26533526 -0.15807466 0.0646966 0.048152585 0.041803867
0.10342712 -0.182657 0.15454109 0.07847705 0.151388 0.1148627 -0.1945543 0.10171406
-0.010355991 0.08274769 0.11831995 -0.1123902 -0.15964688 0.18143421 -0.076024376 0.12573534
0.12423714 0.04362415 0.11899754 0.041525822 -0.17781729 0.13083014 0.093794644 0.09716814
-0.009583335 0.10105741 0.06906507 -0.11587871 0.030596722 0.13036372 -0.118609846 -0.005023517
-0.032603413 -0.07845333 -0.089559875 0.08759137 -0.15519792 -0.16493656 -0.054822396 0.15347283
0.07035258 -0.17787217 -0.06126312 -0.008503352 0.10083865 0.07580455 0.033705883 -0.0666522
0.12238702 0.06547415 -0.07652223 0.14090115 0.12313692 -0.0323727 0.1648938 -0.11078735
0.049937356 -0.06403639 0.18885283 0.1286602 0.13336608 0.04988831 -0.1335413 0.02085559
0.12600999 -0.10479221 -0.08178689 0.11408742 -0.054767475 0.03645617 0.05901599 -0.072989546
-0.10922528 0.048333626 -0.022024663 -0.14725795 -0.12605202 -0.018881531 -0.1490131 0.169292
-0.15559736 -0.1262127 0.19428036 0.01238854 0.06452137 -0.15716955 0.17586938 -0.07678439
-0.06153889 -0.1861687 -0.11489221 -0.120435 -0.13580658 0.18535532 0.062584914 0.19527932
0.06911942 -0.18897347 0.07400682 0.016841399 0.12715073 -0.06521606 0.016409187 0.012300631
0.074037716 -0.036107007 0.11644735 -0.027561115 0.029743193 -0.12897426 -0.0017214051 -0.054141343
-0.070686035 0.11394715 0.0008255762 -0.0776323 -0.058461852 -0.014334886 0.18773302 0.05115296
-0.0056885662 0.03790416 0.1536553 -0.090540566 0.009780186 -0.06726246 0.10650872 -0.2067264
0.05403555 -0.18439047 0.18200004 0.10473017 -0.075268716 0.18722129 -0.049197063 0.08005581
0.10356976 0.00015279815 -0.13120566 0.03148249 0.07299645 -0.07026694 0.0020640532 -0.05292199
0.078933805 -0.19472873 -0.03625187 0.030427346 0.024020283 0.0154514555 0.027707553 0.00697061
-0.113543764 0.058891732 -0.19985203 0.04482825 0.04789897 -0.1125215 -0.1425154 -0.1576554
0.076154806 0.055264175 0.01977005 -0.11121685 0.056125723 0.12859024 0.06367854 0.11383427
0.13461031 0.09701616 -0.1949021 -0.15314755 0.00064274995 -0.0065486506 -0.13526466 0.17564352
